chatbot/data.pth (torch, 4991 bytes, 6 tensors)

l1.weight f4 [8, 54]
000000 07 32 a6 be 65 60 fd 3e 86 37 85 be a0 a8 fd 3e
       -0.32460043 0.49487606 -0.26018924 0.49542713
000010 60 78 c2 3e ff 26 2c bf 32 dc 44 be 2f ee c2 be
       0.37982464 -0.67247003 -0.19224623 -0.38072345
000020 22 c0 f9 be 8c 09 85 be 09 d5 16 3f 61 b2 18 3f
       -0.48779398 -0.25983846 0.58918816 0.59647185
000030 cd d9 cb 3e d2 d1 24 3f bf 87 d5 3e e2 89 d5 3e
       0.39814606 0.6438266 0.4170513 0.4170676
000040 89 16 0e 3f 92 27 2c bf f7 e7 ed 3e 9c 01 12 3f
       0.55503136 -0.6724788 0.46466038 0.57033706
000050 2d 1e 72 be 45 c9 43 3f f5 5d 3e 3f b8 d4 5a 3f
       -0.23644324 0.7647899 0.7436212 0.85480833
000060 47 e2 6b 3e 52 70 f1 3e 03 56 e1 3e 7c 77 1b 3f
       0.23035537 0.47156006 0.44010934 0.60729194
000070 83 05 d7 3d 9d f9 b8 3e 8e 0c a5 be 81 cf 1c 3f
       0.10499098 0.3612794 -0.3223614 0.61254126
000080 2e ad 22 be 4a 15 69 be 1c 24 16 3f bd 76 e4 3e
       -0.15886375 -0.22762027 0.5864885 0.4462184
000090 0a e8 96 3e 3e b7 a9 be 19 0f 2f be 1a b4 f8 bc
       0.29473907 -0.33147615 -0.17095603 -0.030359317
0000a0 38 c2 98 be 1f b0 2c 3f 3a a7 05 3f 1f c5 d0 3e
       -0.29835677 0.6745624 0.5220829 0.4077539
0000b0 5d c8 68 3e 7f 22 15 3f e7 3b 2c bf b4 64 e4 bd
       0.22732683 0.5825576 -0.67278904 -0.1115202
0000c0 94 14 98 3e a0 7a ff 3e 2d 87 d7 3e 12 88 01 3f
       0.297032 0.49898243 0.42095318 0.5059825
0000d0 8a fc c2 bd 0c 3d 06 3e c9 0f 9b 3e a2 ad 22 3f
       -0.09520824 0.13109225 0.3028548 0.6354619
0000e0 27 b7 bc be 04 14 a7 3e 45 d1 48 3e 59 57 03 bf
       -0.36858484 0.32632458 0.1961108 -0.51305157
0000f0 23 b3 6f 3d 5f c0 8b be cd fa d8 be 68 ea cb bd
       0.058520447 -0.27295205 -0.42378846 -0.09956819
000100 d8 08 fd 3e 2a cb ec bd 11 41 29 3e eb 92 81 be
       0.4942081 -0.11562188 0.16528727 -0.25307402
000110 9f 6e 06 3f 10 28 a1 bd c8 b8 d4 3e c7 56 03 bf
       0.52512544 -0.078689694 0.41547227 -0.51304287
000120 d7 dc 70 3e 4e ee 70 3f 85 67 cf 3e 8a f2 2f 3f
       0.23521744 0.94113624 0.40508667 0.6872946
000130 cf 38 2c 3f 01 a6 fd 3e 42 f3 8a be 27 f7 82 3e
       0.67274183 0.49540713 -0.27138716 0.25579187
000140 4b 59 79 3e 64 02 47 3f ee 0c 40 3e fd b7 22 3f
       0.24350469 0.7773802 0.18754932 0.63561994
000150 e0 b2 e2 be ff b9 8c be 62 45 b4 3e d6 9b c8 be
       -0.44277096 -0.27485654 0.35209185 -0.39181393
000160 e7 55 20 3f 98 b0 c9 bd 16 ab 2c 3e 51 22 8f be
       0.62631077 -0.09848136 0.16862139 -0.2795587
000170 2f 97 0c bd 9a db d8 bd a6 03 a1 be 74 a4 7a 3e
       -0.034323867 -0.10588761 -0.31448096 0.24476796
000180 c9 ce ec bd c4 01 13 3f bb d6 ba be 07 9c 3b 3f
       -0.11562879 0.5742457 -0.3649195 0.73284954
000190 9a c3 09 3f 37 32 c2 3e 04 2b aa 3e 35 c4 e0 3e
       0.5381409 0.37928936 0.33235943 0.43899694
0001a0 61 0c ea bd e4 cc bc 3e 13 ab 4b bd 71 5d 84 3e
       -0.11428142 0.3687507 -0.049723696 0.2585254
0001b0 c8 9d 02 bd 17 3f c6 be 65 c3 89 be 32 d0 52 3e
       -0.031888753 -0.3872001 -0.26906887 0.20587233
0001c0 e3 ec 33 3e 5d 5c 07 be d7 2a b2 bc 12 a9 77 be
       0.17570834 -0.13218828 -0.021748943 -0.24185589
0001d0 80 30 93 be 3c d6 ee bd 98 23 00 be 89 1c 3b be
       -0.2874794 -0.11661956 -0.12513578 -0.18272604
0001e0 c2 b1 cc 3e 03 13 55 3d 9d 71 30 bd 85 a5 a1 3a
       0.39979368 0.052020084 -0.0430771 0.0012332654
0001f0 ee 5a 08 bd 2b bb 05 be 8b f0 00 3f 93 de 83 bd
       -0.033289842 -0.1305968 0.5036704 -0.06438937
000200 85 b8 34 bd 30 d2 2c 3f c1 1c 9c 3e d6 eb 97 3d
       -0.044121284 0.6750822 0.30490687 0.07418029
000210 1b d4 a8 3c 71 17 10 3e 48 7b 28 3f b1 87 1c be
       0.020608952 0.14071442 0.6581311 -0.15286137
000220 c0 c5 b3 3e bc c7 41 be cf c5 c6 bd 9c b4 06 3d
       0.3511181 -0.18923849 -0.09705698 0.032887086
000230 d3 fa fa 3d 56 08 b3 be ee 23 23 3d fe d6 2d bd
       0.12254872 -0.34967297 0.039829187 -0.04244136
000240 1f d7 ec 3e 49 7a 15 be 2f 5c 15 be 4e 89 5e bb
       0.46257874 -0.1459743 -0.14585947 -0.0033956352
000250 fd de 5d be 4a cf 25 3f 3b 20 20 bb 73 7c 58 3d
       -0.21667095 0.64769423 -0.0024433273 0.05285306
000260 cc 87 aa be a2 0d 39 be 17 a9 86 be 9c ab 64 bd
       -0.3330673 -0.18071607 -0.2630088 -0.055827722
000270 d3 77 f3 3e 78 26 41 3f 30 85 55 be 55 01 af 3e
       0.47552356 0.75449324 -0.20851588 0.34180704
000280 53 fe 7c bc 03 50 4b 3e 40 27 9b be 4a 11 b1 3e
       -0.015441495 0.19854741 -0.30303383 0.34583503
000290 fe fd a1 be 6a d3 03 3f 04 bd ea 3d 60 b1 07 3e
       -0.31639093 0.5149447 0.11461833 0.13251257
0002a0 36 2d 69 be 5a 2a 4e be 7b a1 0b bf 9d 33 31 be
       -0.22771153 -0.20133343 -0.54543275 -0.17304845
0002b0 59 05 08 3f 60 5c 41 be 6b 9b f1 bd 38 6a 25 be
       0.5313316 -0.18882895 -0.11797222 -0.161538
0002c0 10 36 b0 3e 61 a0 33 bc 95 fd fa 3e fb 07 06 3e
       0.34416246 -0.01096353 0.49021593 0.13088982
0002d0 f2 69 b0 bd 4a be 06 3f 9d 96 82 be 56 19 22 3f
       -0.086139575 0.5263411 -0.25505534 0.6331991
0002e0 a7 07 1c 3f dc 3e 4a 3e 4f 0e 56 be fa 49 ca 3e
       0.60949177 0.19750541 -0.20903896 0.39509565
0002f0 19 37 b1 be 8a 06 8e 3e 02 69 46 be 37 e8 c9 3e
       -0.3461235 0.27739364 -0.19375995 0.39434978
000300 b3 a2 e4 3d 30 96 91 be e4 c2 e6 bd 08 98 be be
       0.11163845 -0.28434896 -0.11267641 -0.37225366
000310 27 92 63 3e 4d c1 5c be 23 c2 79 be a3 f1 c7 be
       0.22223721 -0.21558113 -0.24390464 -0.39051542
000320 d1 3c 33 be 2a e7 ed bb 57 71 79 3d e3 7f aa be
       -0.17503668 -0.007260223 0.060899105 -0.33300695
000330 cd 74 40 be e3 d1 80 3e 10 ac a2 be eb 77 ca 3e
       -0.18794556 0.2516013 -0.31771898 0.39544615
000340 af 9e 1f bf 2c 8c 3b be 83 82 af 3e 51 79 bd be
       -0.62351507 -0.1831519 0.3427926 -0.3700662
000350 f1 54 50 bc 56 6b 8b be 40 34 0a be 1d 04 8a 3d
       -0.012715564 -0.27230328 -0.13496494 0.06739066
000360 82 ea 23 3f da e7 3e 3e d9 be f1 3e 2a 15 8d be
       0.64029706 0.18643132 0.47215918 -0.2755521
000370 fc 4c 0b 3e 4b 1d 5d be 4f 2b c5 3e e5 df d4 3e
       0.13603586 -0.21593206 0.38509604 0.41577068
000380 21 4b 3c 3f 17 c6 ac 3e ce 30 5d be 75 32 b5 be
       0.7355214 0.3374488 -0.21600649 -0.35390058
000390 a9 02 f9 3e 48 30 13 3d 55 ef 79 3e 23 bb 70 be
       0.48634842 0.035934716 0.24407704 -0.23508887
0003a0 d8 d3 80 be b2 7a 5d be fc 6b a1 3e 7c 4a ef be
       -0.25161624 -0.21628836 0.31527698 -0.46736515
0003b0 92 e6 b8 3e 98 16 df be 4f 2b ef be 45 d8 32 bf
       0.3611341 -0.43571925 -0.4671273 -0.6986125
0003c0 28 3e 6f 3e d5 1f 02 be 7d 40 9b 3e a4 9c 65 3d
       0.23363554 -0.12707455 0.30322638 0.056057587
0003d0 47 05 96 3e a4 21 0c be 93 24 9a be ba 86 0a 3d
       0.293009 -0.13684708 -0.3010603 0.03381989
0003e0 6a c5 a3 3e 2b 4a 1c 3f ba 72 7f 3e 7b a5 78 be
       0.31986552 0.6105067 0.24946108 -0.24281876
0003f0 16 06 67 3e 49 80 0e 3f 3d db 0a 3f e1 42 0b 3f
       0.22560915 0.556645 0.5424078 0.54398924

l1.bias f4 [8]
000000 3a 36 2c 3f d0 5a 03 3f 83 e1 05 3e 99 0d 41 3f
       0.67270243 0.51310444 0.13074307 0.75411373
000010 3e 47 ef 3e 20 ef 83 3f a3 80 00 3f da 1c 49 3f
       0.4673404 1.030735 0.50196284 0.7855965

l2.weight f4 [8, 8]
000000 65 13 50 be ea 61 2b 3f 81 18 66 3f bf 14 30 bf
       -0.20319898 0.6694628 0.8988114 -0.68781656
000010 14 47 22 3f b2 3b 38 3e 0a d9 98 3f ef f3 34 bf
       0.63389707 0.17991522 1.1941235 -0.70684713
000020 06 17 df 3d a9 b6 cd 3e 06 5c 21 bf 93 f6 92 3f
       0.10893063 0.4017842 -0.6303104 1.1481498
000030 8c 19 fc be 84 4b 9e 3f 80 60 de 3e 06 8c b5 bc
       -0.4923824 1.2366796 0.43433 -0.022161495
000040 07 3e ad 3f 78 6e 23 3f 87 7a 56 bf b5 63 60 3f
       1.3534554 0.63840437 -0.8378071 0.8765214
000050 3b f7 15 bf 8e e6 8c be ee c4 c7 3e 3a 59 2c be
       -0.5858037 -0.2751965 0.39017433 -0.16830912
000060 83 bb 43 3f 68 6c aa 3f a2 3d 85 3f a3 ab e1 3e
       0.76457995 1.3314333 1.0409434 0.4407626
000070 bc b0 20 3f 3e e4 26 be 64 a2 74 3f ff 02 04 be
       0.62769675 -0.16298005 0.9556029 -0.12891768
000080 00 02 60 3f 59 f8 10 be 0b b6 a3 3f 2c 61 59 3f
       0.8750305 -0.14157237 1.278993 0.849139
000090 e8 b9 90 bf fa 13 a8 3f da f6 56 bf b3 68 03 3f
       -1.1306734 1.3131096 -0.83970416 0.51331633
0000a0 30 89 66 3e 17 ed 42 be 77 4d 52 3e d9 42 ac bd
       0.2251327 -0.19035755 0.20537363 -0.08411188
0000b0 7a 27 c1 bb 21 da 92 bd 56 d2 7b be e8 7c 01 be
       -0.0058945986 -0.07170511 -0.24591956 -0.12645304
0000c0 de 71 40 bf e6 8f ef 3e 4a c7 1e bf aa 4d 8a 3f
       -0.7517375 0.46789473 -0.6202284 1.0804951
0000d0 ad 08 d5 3e d1 d2 a0 3f 51 f5 9c 3e e2 3b 1b 3e
       0.41608182 1.2564336 0.30655912 0.15159562
0000e0 cd 7d b3 3e 50 d7 a4 bf 60 03 f6 be a0 fc 3e bf
       0.35056916 -1.2878208 -0.4804945 -0.74604225
0000f0 0b 70 2c 3f 57 84 ed 3e 2b d7 4a bf 98 67 b1 3f
       0.67358464 0.4639003 -0.7923457 1.3859739

l2.bias f4 [8]
000000 44 c4 4d 3e f8 2c 04 3f 55 ab 96 3d 89 ec af bd
       0.200944 0.51631117 0.07356898 -0.085900374
000010 b0 40 1f 3f 4b c5 86 be 72 23 24 3f d7 f5 1f 3f
       0.6220808 -0.26322398 0.64116585 0.62484497

l3.weight f4 [7, 8]
000000 f5 34 40 bf a7 ce 8f bd 96 2d 39 3e 5e 10 6c bf
       -0.75080806 -0.07021838 0.18083796 -0.92212474
000010 e6 86 d5 3e e9 60 2a 3e 2a a0 b2 bf bd e7 c2 3e
       0.41704482 0.16638531 -1.3955128 0.38067427
000020 94 2a af bd 69 af 82 3d 6d 97 32 3f e3 f9 54 3e
       -0.08553043 0.06381113 0.6976231 0.20798449
000030 a2 c7 71 bf 96 a0 1b be 7b b6 65 be 77 0f 4e bf
       -0.9444524 -0.15197977 -0.22432892 -0.8049235
000040 45 b1 10 bf f6 de fe 3e 56 a9 a9 bf 2b f1 e0 bf
       -0.5652049 0.4977948 -1.3254802 -1.7573599
000050 ef 6f eb 3e 00 b7 0a be ad 77 0b 3f 96 55 99 bd
       0.45983836 -0.13546371 0.54479486 -0.07487027
000060 d0 3f 80 bf 1f b7 6d 3e 48 8d d3 3e 3d 62 81 bd
       -1.0019474 0.23214386 0.41318727 -0.063175656
000070 19 5a c9 3e 43 d5 b2 bd 92 3b 43 bc 35 1e 89 bf
       0.39326552 -0.08732083 -0.011916058 -1.0712343
000080 01 e3 17 3f 0c 06 86 bf c1 cf e9 be 36 41 26 3f
       0.59330755 -1.0470595 -0.45666316 0.64943254
000090 83 8b 42 be 10 31 04 be 59 2a 77 bf e4 d3 6f bf
       -0.18998532 -0.12909341 -0.9654899 -0.93682694
0000a0 fd 1d 0d bf bc 08 61 bf c1 f4 5a bf 53 4b ba bd
       -0.55123883 -0.8790395 -0.85529715 -0.09096398
0000b0 55 8c 7a bf 66 f6 6c be 48 e1 80 3e a0 db 5f 3f
       -0.9787038 -0.23140869 0.25171876 0.87444496
0000c0 a9 72 28 3f ee a5 62 3e c2 43 99 bf ae 8f 05 ba
       0.6579996 0.2213361 -1.1973803 -0.00050949573
0000d0 5a 84 8a bf cb d0 d1 3d ca 8f 33 3f f2 26 6c bf
       -1.082164 0.10244902 0.7014128 -0.92246926

l3.bias f4 [7]
000000 ff 9d 59 bd 6e 2e 61 be c8 3b 4b 3d ed 2c cb 3d
       -0.053129192 -0.21990368 0.04961756 0.09920678
000010 1e 40 5d 3d 87 76 36 3e 8d ff b8 bc
       0.054016225 0.17818652 -0.022582794
